Model: "sequential_2"
_________________________________________________________________
 Layer (type)                Output Shape              Param #   
=================================================================
 conv2d_10 (Conv2D)          (None, 55, 55, 96)        34944     
                                                                 
 max_pooling2d_6 (MaxPoolin  (None, 27, 27, 96)        0         
 g2D)                                                            
                                                                 
 conv2d_11 (Conv2D)          (None, 27, 27, 256)       614656    
                                                                 
 max_pooling2d_7 (MaxPoolin  (None, 13, 13, 256)       0         
 g2D)                                                            
                                                                 
 conv2d_12 (Conv2D)          (None, 13, 13, 384)       885120    
                                                                 
 conv2d_13 (Conv2D)          (None, 13, 13, 384)       1327488   
                                                                 
 conv2d_14 (Conv2D)          (None, 13, 13, 256)       884992    
                                                                 
 max_pooling2d_8 (MaxPoolin  (None, 6, 6, 256)         0         
 g2D)                                                            
                                                                 
 flatten_2 (Flatten)         (None, 9216)              0         
                                                                 
 dense_6 (Dense)             (None, 4096)              37752832  
                                                                 
 dropout_4 (Dropout)         (None, 4096)              0         
                                                                 
 dense_7 (Dense)             (None, 4096)              16781312  
                                                                 
 dropout_5 (Dropout)         (None, 4096)              0         
                                                                 
 dense_8 (Dense)             (None, 1)                 4097      
                                                                 
=================================================================
Total params: 58285441 (222.34 MB)
Trainable params: 58285441 (222.34 MB)
Non-trainable params: 0 (0.00 Byte)
_________________________________________________________________

Layer: conv2d_10
  Weight 0: (11, 11, 3, 96)
[[[[ 3.14955064e-03  1.30518293e-02 -6.16493868e-03 ...  2.09711143e-03
…
